代码/entire_model.pth (torch, 40575 bytes, 5 tensors)

weight f4 [128, 5]
-0.2926255 -0.016030446 -0.29875502 -0.5429099 0.06734878 0.62675637 0.04783848 -0.035661113
0.14817916 -0.10211281 0.5511789 0.1272632 0.015515787 0.18905771 -0.06739411 -0.7662279
-0.11853885 0.018626586 -0.09204325 -0.047955576 -0.6934024 -0.1043155 0.19825786 0.16321652
0.031495355 -0.4517073 0.19370143 0.018200906 -0.15745668 0.05998872 0.68276066 0.644117
-0.2271131 -0.19655804 0.027450169 0.30774426 -0.08163273 -0.10223532 0.3391328 -0.30726975
-0.3856148 -0.6900346 -0.08207962 -0.15283309 0.058295105 0.24907099 -0.7253552 0.23752034
0.41010812 -0.18900166 -0.8589211 -0.26547384 -0.14485703 -0.12874201 -0.07318599 -0.029513372
0.78357923 0.39022863 -0.14863959 -0.17861778 0.07711708 -0.62616414 -0.1702145 0.25178862
-0.14609174 -0.36493137 0.2529712 -0.068988904 -0.28658473 0.06752241 -0.50549734 -0.081964985
-0.24901426 -0.493469 0.07003973 -0.21860762 0.6134034 -0.35925642 -0.51412857 0.08126505
-0.13913104 -0.024925977 0.2595696 -0.15505832 -0.38344106 -0.015149148 0.8032519 0.23820764
0.1005421 -0.2104765 -0.14865535 -0.7164335 -0.21808553 0.19565438 -0.1762511 -0.5235083
0.41191462 -0.25799334 -0.3176331 0.010225266 0.66875434 0.029874142 0.07822082 0.19561711
-0.039692048 0.03537625 0.09205705 -0.16734418 -0.091775626 -0.34788835 -0.071297035 -0.28468677
0.3932963 0.022546453 -0.39356896 0.44629166 -0.027436716 0.05983676 0.8831422 -0.008854759
0.34891206 -0.064410895 -0.061784506 0.27747214 -0.37155196 -0.2384745 -0.056548864 -0.030135214
-0.17055336 -0.22210628 -0.662109 -0.47606343 0.12615202 0.3247704 0.008527211 0.670712
-0.14629354 0.2569703 0.6990335 0.06252608 -0.6621376 0.019912645 0.07824956 -0.07896866
-0.0892709 0.6288545 -0.30518937 0.30786505 -0.11027317 0.017483147 -0.3632106 0.21275115
-0.033629417 0.31353307 -0.3850435 -0.13202426 -0.17845553 0.13099301 0.20245391 -0.40687835
0.45455012 -0.032035854 0.14389826 0.7986859 -0.003971053 -0.23450331 0.1701279 -0.023959668
-0.16387425 -0.19801359 -0.14371371 -0.4238409 0.17872548 0.59741926 -0.043316286 0.04144108
0.34249857 0.093518086 -0.406371 -0.24021274 0.6846672 -0.027719188 -0.3751997 -0.17112853
0.08798859 0.47752377 -0.5438672 0.106398836 -0.71504813 -0.12099436 -0.31319612 -0.4120105
-0.10216084 0.25756955 -0.26967067 -0.2769336 0.0048686564 0.07105076 -0.21964017 -0.2987978
-0.7372248 -0.10361075 -0.026975088 0.38209382 0.029367032 -0.23353752 -0.27373216 -0.4470989
-0.66213375 -0.0012440685 0.7709577 -0.250462 -0.0069431863 -0.1409384 0.04694452 0.6778697
0.10178667 0.19020991 0.13871424 -0.057686787 0.33222353 0.48219132 -0.20162882 0.22815605
0.050019197 -0.7310991 -0.0049726297 -0.008440393 0.04929963 -0.060912155 0.65748817 -0.4345841
0.30949533 -0.5477636 -0.049531154 -0.20113438 0.5081733 -0.028974352 -0.2195072 0.12477751
-0.17986125 0.037044585 0.22356969 -0.1053012 -0.39199024 0.5216638 0.47186792 -0.48708278
0.013653345 0.078992665 0.73126084 0.13687982 0.14855862 0.08140416 -0.04400163 0.5829248
00000000: 02d3 95be 4852 83bc 6bf6 98be 25fc 0abf
00000010: 28ee 893d 1b73 203f 48f2 433d 6311 12bd
00000020: 47bc 173e 8520 d1bd 0f1a 0d3f 4951 023e
00000030: ed35 7e3c 5898 413e ec05 8abd 8327 44bf
00000040: 7fc4 f2bd c896 983c 2c81 bcbd 116d 44bd
00000050: d282 31bf 5da3 d5bd 1c04 4b3e 3b22 273e
00000060: 4601 013d 2e46 e7be ab59 463e 111a 953c
00000070: 533c 21be bbb6 753d 67c9 2e3f dae4 243f
00000080: 5690 68be 8346 49be 2ddf e03c a890 9d3e
00000090: 102f a7bd c060 d1bd d0a2 ad3e 7652 9dbe
000000a0: 4e6f c5be 1ca6 30bf 5c19 a8bd 4780 1cbe
000000b0: d9c6 6e3d 770c 7f3e e1b0 39bf 8838 733e
000000c0: b1f9 d13e a789 41be 41e2 5bbf 30ec 87be
000000d0: 6755 14be f2d4 03be 89e2 95bd 07c6 f1bc
000000e0: a698 483f 0ccc c73e fa34 18be 94e7 36be
000000f0: 8fef 9d3d 4b4c 20bf b64c 2ebe 70ea 803e
00000100: 1399 15be 49d8 babe 7185 813e 0e4a 8dbd
00000110: 3cbb 92be 3049 8a3d 4668 01bf 42dd a7bd
00000120: 98fd 7ebe f8a7 fcbe fd70 8f3d adda 5fbe
00000130: 0108 1d3f 75f0 b7be ee9d 03bf 4a6e a63d
00000140: 5e78 0ebe 9031 ccbc 4ee6 843e 9cc7 1ebe
00000150: 6352 c4be 2234 78bc eba1 4d3f b4ec 733e
00000160: 04e9 cd3d 2787 57be 1c39 18be 3068 37bf
00000170: d051 5fbe 9f59 483e 2b7b 34be a404 06bf
00000180: 79e6 d23e b417 84be cea0 a2be e087 273c
00000190: 7c33 2b3f 9eba f43c 3d32 a03d da4f 483e
000001a0: 2194 22bd b0e6 103d 6888 bc3d 465c 2bbe
000001b0: dcf4 bbbd 6c1e b2be 2e04 92bd 77c2 91be
000001c0: 225e c93e 57b3 b83c df81 c9be 5780 e43e
000001d0: f7c2 e0bc 6417 753d 9b15 623f 8d13 11bc
000001e0: 9aa4 b23e dce9 83bd c011 7dbd d410 8e3e
000001f0: 0f3c bebe a932 74be c89f 67bd 20de f6bc
00000200: 8aa5 2ebe d46f 63be fa7f 29bf 96be f3be
00000210: ff2d 013e 4e48 a63e b7b5 0b3c c8b3 2b3f
00000220: f9cd 15be 9c91 833e dcf3 323f ac0d 803d
00000230: da81 29bf d81f a33c 4e41 a03d 52ba a1bd
00000240: a9d3 b6bd 9cfc 203f c841 9cbe 7da0 9d3e
00000250: e6d6 e1bd d138 8f3c bdf6 b9be 70db 593e
00000260: 00bf 09bd 6887 a03e 6c24 c5be 5e31 07be
00000270: 0cbd 36be 0823 063e 1450 4f3e 5c52 d0be
00000280: cbba e83e 0738 03bd 115a 133e ae76 4c3f
00000290: 9b1f 82bb a321 70be 0236 2e3e 1147 c4bc
000002a0: a7ce 27be 13c4 4abe b029 13be ad01 d9be
000002b0: d003 373e 78f0 183f 6b6c 31bd 1fbe 293d
000002c0: f95b af3e 6986 bf3d dc0f d0be 54fa 75be
000002d0: 5a46 2f3f 5a13 e3bc 2d1a c0be 513c 2fbe
000002e0: 5d33 b43d ff7d f43e e13a 0bbf a2e7 d93d
000002f0: 650d 37bf e4cb f7bd 3e5b a0be 0af3 d2be
00000300: b439 d1bd 28e0 833e 4612 8abe 3eca 8dbe
00000310: 4089 9f3b 1083 913d 5ae9 60be 06fc 98be
00000320: c4ba 3cbf df31 d4bd dcfa dcbc cda1 c33e
00000330: 2193 f03c 7624 6fbe 9f26 8cbe 26ea e4be
00000340: 9981 29bf 0310 a3ba 7c5d 453f 8e3c 80be
00000350: ab83 e3bb 2852 10be e648 403d de88 2d3f
00000360: 8875 d03d 63c6 423e 1b0b 0e3e fb48 6cbd
00000370: 3419 aa3e c8e1 f63e c977 4ebe bda1 693e
00000380: eee0 4c3d 5029 3bbf 71f1 a2bb 9349 0abc
00000390: 69ee 493d 067f 79bd 2551 283f cf81 debe
000003a0: 2c76 9e3e 3c3a 0cbf 2ee1 4abd 2cf6 4dbe
000003b0: a517 023f 9f5b edbc 7fc6 60be 5a8b ff3d
000003c0: 8c2d 38be 10bc 173d 74ef 643e 28a8 d7bd
000003d0: f2b2 c8be c28b 053f ac98 f13e ea62 f9be
000003e0: 48b2 5f3c e8c6 a13d e933 3b3f 392a 0c3e
000003f0: c01f 183e 39b7 a63d 0e3b 34bd 8f3a 153f

bias f4 [128]
-0.25008208 0.33396527 0.4011162 0.0141358115 -0.1325945 -0.43126273 -0.034330968 -0.3753451
-0.4476887 -0.31521606 0.044013645 -0.013201304 0.09485267 -0.5345149 -0.4832735 0.025837254
0.23070961 0.47029737 -0.0041285264 0.102684714 -0.44955927 -0.09899199 0.36680233 0.18957815
0.06850088 -0.22468135 0.073408104 -0.34963003 0.36125648 -0.1435536 -0.29651508 0.11720759
0.2149293 -0.27797648 -0.04760535 -0.379285 -0.62470317 0.2894558 -0.3725974 0.049637914
-0.15814234 0.076215774 -0.38542065 -0.4311217 -0.28386715 -0.31514215 0.032168142 -0.6100786
-0.29649365 -0.5301284 -0.28955704 -0.48734 -0.258475 -0.049200613 -0.36752754 -0.52922344
-0.12530322 -0.20707746 -0.26265824 -0.115952395 -0.69501114 0.3228691 -0.29773346 -0.4976436
-0.06688565 -0.343595 0.17905785 0.35145712 0.14938372 0.19863059 -0.4075096 -0.3808041
-0.4281358 -0.374233 0.61467963 0.12115429 0.0060834885 0.3475245 -0.1286449 -0.008599767
0.05572194 -0.27454996 0.0054912865 0.23536608 -0.12480127 -0.2506489 0.2516447 -0.02705529
-0.4017083 -0.24555583 -0.4915961 -0.44115478 -0.4099948 0.33591413 0.046996877 0.08152269
0.30576706 0.14076662 0.44478452 -0.17910452 0.34103417 0.07713495 -0.13887252 -0.15033457
-0.28633815 0.21522786 -0.4814432 0.24769087 -0.2673559 -0.1908249 0.3062628 0.3862087
-0.13183743 -0.28572762 0.036485262 -0.45973375 -0.053539034 -0.4391316 -0.12992 -0.19801311
0.12272741 0.074078985 -0.091579646 -0.20061868 -0.6418781 -0.16012351 0.2401368 -0.35658088
00000000: c20a 80be 7ffd aa3e 1a5f cd3e e499 673c
00000010: dac6 07be 78ce dcbe a19e 0cbd 3c2d c0be
00000020: 7437 e5be 0064 a1be a747 343d 484a 58bc
00000030: 1e42 c23d f8d5 08bf a06f f7be a6a8 d33c
00000040: 243f 6c3e d1ca f03e 9748 87bb 5d4c d23d
00000050: a22c e6be 50bc cabd 84cd bb3e c620 423e
00000060: 304a 8c3d de12 66be fd56 963d b502 b3be
00000070: 9cf6 b83e b7ff 12be d3d0 97be 880a f03d
00000080: 6d16 5c3e ef52 8ebe d4fd 42bd a531 c2be
00000090: 8cec 1fbf 8d33 943e 16c5 bebe 2051 4b3d
000000a0: 11f0 21be 0417 9c3d db55 c5be fcbb dcbe
000000b0: 0957 91be 505a a1be bec2 033d 1c2e 1cbf
000000c0: 04ce 97be 7fb6 07bf d240 94be a184 f9be
000000d0: d656 84be 9586 49bd 922c bcbe 307b 07bf
000000e0: 7d4f 00be 1d0c 54be 247b 86be 7378 edbd
000000f0: 40ec 31bf 194f a53e 8570 98be 24cb febe
00000100: 58fb 88bd afeb afbe f15a 373e 30f2 b33e
00000110: 0cf8 183e d165 4b3e 19a5 d0be c1f8 c2be
00000120: 9e34 dbbe 789b bfbe a55b 1d3f be1f f83d
00000130: 0058 c73b bbee b13e 7dbb 03be 0ae6 0cbc
00000140: b03c 643d d091 8cbe 40f0 b33b ce03 713e
00000150: cf97 ffbd 0d55 80be 93d7 803e 0ea3 ddbc
00000160: b6ac cdbe fd72 7bbe 7cb2 fbbe 0adf e1be
00000170: d7ea d1be f0fc ab3e cc7f 403d 5ef5 a63d
00000180: 808d 9c3e 2025 103e ccba e33e 2d67 37be
00000190: 089c ae3e eef8 9d3d 9934 0ebe 4ef1 19be
000001a0: ea9a 92be b164 5c3e b97f f6be ada2 7d3e
000001b0: dfe2 88be 9a67 43be 7ace 9c3e 26bd c53e
000001c0: 6400 07be e44a 92be 9271 153d 3962 ebbe
000001d0: bf4b 5bbd dbd5 e0be c009 05be f3c3 4abe
000001e0: 8258 fb3d b9b6 973d 1c8e bbbd fc6e 4dbe
000001f0: 2052 24bf 6bf7 23be 6ce6 753e c591 b6be

weight f4 [64, 128]
-0.019701872 0.27553922 0.12224917 0.16196029 -0.08001087 0.024146968 0.03095573 -0.047629185
-0.03841233 0.22876865 0.42153388 0.3606711 0.2604074 -0.041275732 -0.07735849 -0.005327431
-0.010938488 0.2986405 0.58304346 -0.019784614 0.15223216 -0.07182694 0.07290268 -0.00078021723
0.06423014 -0.053533 -0.014340712 0.0202088 0.20740461 0.015362664 -0.03301719 -0.04341946
0.009135894 -0.028088178 -0.0014968083 -0.08070454 -0.0031395985 0.044953473 0.0003483668 0.06554525
-0.012748813 -0.034656074 0.034922943 0.24283825 0.03424438 0.47022057 -0.01596138 0.00971022
-0.07646757 0.003043725 0.25323972 -0.0075743836 0.09696643 0.30155644 0.019648377 -0.011965064
-0.0036324935 -0.024025038 0.060497783 -0.035505954 0.0025114096 -0.003370069 0.06240953 -0.026549134
0.0029691423 0.018324537 0.005494721 0.041361265 -0.03199909 -0.03404286 -0.07148623 -0.044152346
-0.005350432 -0.017045185 0.05427802 -0.0011485904 -0.01644151 -0.03961577 0.20202036 0.0055607464
-0.069288015 0.014051513 0.038458537 -0.03325612 0.0019284858 0.059494518 -0.07996444 -0.018419927
-0.07378372 -0.076439485 -0.049205504 -0.047758978 0.006729157 0.1516764 -0.010397422 0.0075711114
0.07447895 -0.02811459 0.39150497 -0.05144993 -0.003989903 0.015629504 0.0017230434 0.11770033
0.33044228 0.005421507 0.03920722 -0.09522122 0.0021797686 0.45970345 -0.06471395 -0.004652591
0.04249116 0.014734507 0.5153043 -0.058350183 -0.00070607086 0.065097146 0.024628133 -0.0015519202
-0.043105185 -0.039291177 0.026668094 0.334514 0.0011422603 0.025440184 0.06381854 0.0033304412
0.05790817 -0.2516781 -0.19264543 -0.3151103 -0.003964652 -0.029233439 0.023423642 -0.076726496
-0.013440718 -0.38631254 -0.15779309 -0.25968558 -0.49614325 -0.08110565 0.017166888 0.025865342
0.036759175 -0.2098819 -0.4967256 -0.06728747 -0.19172812 0.007805459 0.08802708 0.01927411
-0.05483954 0.04414127 0.0016487993 0.01795744 -0.16135988 0.07120039 0.04703837 -0.06341942
0.03493089 -0.015841873 0.18405838 0.006110184 0.0049732323 0.14275678 0.085226126 -0.086950555
0.024995504 0.05956554 0.028879678 -0.19909015 -0.052200757 -0.23256128 0.07333281 0.050845705
0.061077513 0.032971993 -0.19157024 -0.0008828238 -0.2895527 -0.33384803 0.03281569 0.046814848
-0.06628274 0.01944575 0.07953041 0.029405067 -0.004302513 0.011091566 -0.17327145 0.062990494
-0.04920254 -0.06197961 0.08735994 -0.06328819 -0.08223301 -0.03326543 -0.041468244 0.029608231
0.030011395 -0.003038168 -0.024902284 0.050684664 0.07488675 -0.0022689097 -0.23366983 -0.032962464
-0.042005077 -0.0069603613 0.07164756 0.006694897 -0.013069213 0.14413795 -0.036138322 -0.020066796
0.0737636 -0.15313332 0.027510079 0.059004966 0.010317791 -0.10647584 -0.024710728 0.09437912
-0.029031139 -0.061477944 -0.54690444 0.047852192 -0.0024216527 0.060637105 -0.01662906 -0.13614179
-0.21437857 -0.08534052 0.0049338364 -0.00012349378 -0.03161139 -0.1434009 0.0756113 -0.07772883
-0.060756654 0.08645753 -0.57841194 0.029410684 0.016817315 -0.026289951 0.0052639917 -0.04550724
-0.07213954 0.027000286 0.0445439 -0.20940031 -0.034929596 0.12059873 0.012202658 0.037651334
00000000: d265 a1bc 7a13 8d3e c65d fa3d ebd8 253e
00000010: bddc a3bd ddcf c53c df96 fd3c d216 43bd
00000020: 3f56 1dbd 5442 6a3e 4ad3 d73e e2a9 b83e
00000030: 1e54 853e be10 29bd 216e 9ebd bb91 aebb
00000040: 5837 33bc 68e7 983e 5642 153f 5813 a2bc
00000050: bfe2 1b3e 011a 93bd 004e 953d 7e87 4cba
00000060: 178b 833d 6b45 5bbd 4ef5 6abc ed8c a53c
00000070: e061 543e afb3 7b3c 083d 07bd 9bd8 31bd
00000080: b7ae 153c 2e19 e6bc 8d30 c4ba 6c48 a5bd
00000090: b9c1 4dbb 2221 383d 00a5 b639 973c 863d
000000a0: 66e0 50bc 87f3 0dbd 5c0b 0f3d 97aa 783e
000000b0: d643 0c3d c0c0 f03e 71c1 82bc 9d17 1f3c
000000c0: 089b 9cbd 3b79 473b a3a8 813e 8932 f8bb
000000d0: 5696 c63d 9b65 9a3e a2f5 a03c 1e09 44bc
000000e0: 210f 6ebb 28d0 c4bc 86cc 773d b16e 11bd
000000f0: 7696 243b 60dc 5cbb 23a1 7f3d 927d d9bc
00000100: f195 423b 571d 963c 0f0d b43b 6e6a 293d
00000110: 7a11 03bd 8770 0bbd 5f67 92bd 17d9 34bd
00000120: ad52 afbb 58a2 8bbc a152 5e3d 4c8c 96ba
00000130: 58b0 86bc 2544 22bd 6dde 4e3e ec36 b63b
00000140: e0e6 8dbd 5138 663c b386 1d3d 9237 08bd
00000150: 3fc5 fc3a 86b0 733d 65c4 a3bd 63e5 96bc
00000160: eb1b 97bd 4e8c 9cbd b68b 49bd eb9e 43bd
00000170: 4380 dc3b 0f51 1b3e f359 2abc 1617 f83b
00000180: 6b88 983d 9250 e6bc 5773 c83e 29bd 52bd
00000190: bbbd 82bb 7209 803c bed7 e13a df0c f13d
000001a0: bb2f a93e e6a6 b13b c097 203d 5803 c3bd
000001b0: 73da 0e3b 405e eb3e bf88 84bd c374 98bb
000001c0: 360b 2e3d 0069 713c fcea 033f 9a00 6fbd
000001d0: 9d17 39ba a751 853d f0c0 c93c cd69 cbba
000001e0: 108f 30bd c9ef 20bd 0c77 da3c 6b45 ab3e
000001f0: e5b7 953a ef67 d03c 4bb3 823d 8843 5a3b
00000200: 1e31 6d3d f4db 80be d844 45be 2356 a1be
00000210: e9e9 81bb f77a efbc f0e2 bf3c c822 9dbd
00000220: 7536 5cbc c2ca c5be 8394 21be 82f5 84be
00000230: 7d06 febe b81a a6bd 93a1 8c3c 8ee3 d33c
00000240: ca90 163d 48eb 56be d152 febe 03ce 89bd
00000250: 6054 44be f0c4 ff3b 8b47 b43d bde4 9d3c
00000260: 6d9f 60bd 7acd 343d 861c d83a 7b1b 933c
00000270: 863b 25be 83d1 913d 4eab 403d 0ae2 81bd
00000280: b113 0f3d d1c6 81bc cd79 3c3e f037 c83b
00000290: 7ff6 a23b d52e 123e 098b ae3d 2213 b2bd
000002a0: 5fc3 cc3c fffa 733d 1395 ec3c 4ade 4bbe
000002b0: 76d0 55bd 8b24 6ebe 832f 963d 9643 503d
000002c0: 6a2c 7a3d a40d 073d fd2a 44be 4d6d 67ba
000002d0: 4040 94be 21ee aabe bf69 063d edc0 3f3d
000002e0: 3fbf 87bd b24c 9f3c d7e0 a23d e5e2 f03c
000002f0: 18fc 8cbb 66b9 353c 126e 31be 2901 813d
00000300: 9a88 49bd 55de 7dbd c5e9 b23d 3d9d 81bd
00000310: c869 a8bd 5541 08bd 9bda 29bd f68c f23c
00000320: 75da f53c 001c 47bb e0ff cbbc b99a 4f3d
00000330: 395e 993d fdb1 14bb 2547 6fbe a603 07bd
00000340: 840d 2cbd be13 e4bb f5bb 923d de60 db3b
00000350: 4120 56bc e698 133e c705 14bd 1f63 a4bc
00000360: 5f11 973d fbce 1cbe d15c e13c 31af 713d
00000370: f40b 293c 0110 dabd 276e cabc d749 c13d
00000380: b6d2 edbc 4cd0 7bbd ee01 0cbf a900 443d
00000390: 97b4 1ebb 9d5e 783d ab39 88bc c168 0bbe
000003a0: 0e86 5bbe 03c7 aebd 05ac a13b 1c7e 01b9
000003b0: f27a 01bd afd7 12be 19da 9a3d 4b30 9fbd
000003c0: f8db 78bd a510 b13d ce12 14bf adee f03c
000003d0: 77c4 893c 065e d7bc 907d ac3b cd65 3abd
000003e0: e5bd 93bd b42f dd3c aa73 363d 096d 56be
000003f0: 5612 0fbd 78fc f63d a8ed 473c 4938 1a3d

bias f4 [64]
0.023868652 -0.03335906 0.09639532 0.14055866 0.036235098 0.012472899 -0.013656719 0.049783133
0.027401302 0.06379126 -0.13464086 -0.036771525 0.07100162 -0.050200205 -0.08575674 0.12792273
0.04166041 0.13964458 0.016829774 0.087449074 -0.051246203 0.095732085 0.013091586 0.040852543
0.025407724 -0.0103492 0.0770356 -0.052039117 0.13107818 0.1282244 0.14440426 -0.09981105
0.11529113 -0.07158008 0.05261763 0.0040809973 0.061524667 0.06537844 0.07856341 -0.08090923
-0.047454853 0.06455347 0.017726777 -0.073147744 0.022238309 -0.10794932 0.048777424 0.059723087
0.12325876 0.042062398 0.09039165 0.07223788 0.07260573 0.04684637 0.04614539 -0.0029643797
0.05951219 -0.057069276 -0.054890692 0.08254356 -0.0162669 0.049630325 0.008063842 -0.003092358
00000000: 3188 c33c 82a3 08bd e96a c53d 9cee 0f3e
00000010: 416b 143d 215b 4c3c 6ec0 5fbc 66e9 4b3d
00000020: b278 e03c fea4 823d 4bdf 09be bd9d 16bd
00000030: 4c69 913d bb9e 4dbd 3ba1 afbd 2dfe 023e
00000040: 1ba4 2a3d fdfe 0e3e 98de 893c 8018 b33d
00000050: 8ae7 51bd 2f0f c43d 177e 563c ff54 273d
00000060: dc23 d03c b18f 29bc d7c4 9d3d f826 55bd
00000070: 5c39 063e 424d 033e b6de 133e bc69 ccbd
00000080: c21d ec3d 9498 92bd 9685 573d e3b9 853b
00000090: 4a01 7c3d 22e5 853d dae5 a03d bdb3 a5bd
000000a0: 0560 42bd 9c34 843d bf37 913c 7cce 95bd
000000b0: 1d2d b63c 8814 ddbd d6ca 473d 32a0 743d
000000c0: 176f fc3d 9f49 2c3d 421f b93d 74f1 933d
000000d0: 50b2 943d fbe1 3f3d f302 3d3d 0a46 42bb
000000e0: 0ec3 733d 79c1 69bd 10d5 60bd 990c a93d
000000f0: 2942 85bc 2b49 4b3d 341e 043c 28a9 4abb

weight f4 [1, 64]
-0.09540908 0.03703456 0.052436456 -0.14510357 -0.096262604 -0.06900815 0.07242216 -0.12271897
0.08233789 -0.11416435 0.07729683 0.08363779 0.06522905 0.052032765 -0.062988855 -0.104540154
-0.17883119 0.083976045 0.11589241 0.07959476 0.0922906 0.07383837 -0.08943633 -0.12978671
-0.14564365 0.059711155 0.07739361 -0.09903316 0.082304485 0.06499397 -0.124616176 -0.06949857
-0.0844161 0.07084023 0.09556653 -0.09797157 0.05605313 0.05750086 -0.12335938 0.15779752
0.080090836 -0.13322426 0.07903475 0.1243377 -0.08407887 0.100184925 -0.1527731 0.08786231
0.069486596 -0.15090139 -0.08135471 -0.09984785 0.07462162 -0.081540324 -0.1233555 0.07411919
-0.07308912 -0.13979727 -0.111316025 0.06722167 -0.0948543 0.084860235 0.06635711 0.06358592
00000000: d665 c3bd 8db1 173d 9cc7 563d 0896 14be
00000010: 5425 c5bd 2554 8dbd 1252 943d 1554 fbbd
00000020: c5a0 a83d 00cf e9bd cd4d 9e3d 4a4a ab3d
00000030: cf96 853d 4f20 553d 4d00 81bd 2619 d6bd
00000040: 861f 37be a2fb ab3d 0059 ed3d 9402 a33d
00000050: db02 bd3d 9238 973d 652a b7bd cfe6 04be
00000060: 9c23 15be af93 743d 8a80 9e3d e6d1 cabd
00000070: 418f a83d 8f1b 853d c436 ffbd 4455 8ebd
00000080: 59e2 acbd af14 913d 63b8 c33d 52a5 c8bd
00000090: f897 653d 0686 6b3d d8a3 fcbd ac95 213e
000000a0: aa06 a43d f16b 08be f9dc a13d c4a4 fe3d
000000b0: 8b31 acbd c12d cd3d 8d70 1cbe 28f1 b33d
000000c0: fd4e 8e3d e585 1abe 4c9d a6bd 087d ccbd
000000d0: 38d3 983d 9dfe a6bd cfa1 fcbd cdcb 973d
000000e0: c0af 95bd 0427 0fbe a8f9 e3bd 84ab 893d
000000f0: f942 c2bd 34cb ad3d 3de6 873d 5639 823d
