代码/model_weights.pth (torch, 38727 bytes, 5 tensors)

fc1.weight f4 [128, 5]
-0.18221428 -0.639691 0.023909442 0.10486625 -0.02125328 -0.11398219 -0.87530935 -0.29736957
0.2095904 -0.24889313 0.03521332 0.05972457 0.24502754 0.07512075 -0.22561793 -0.72563744
0.27641186 0.14148417 0.22575673 -0.117135845 0.4188574 0.31083566 0.16324317 -0.34280026
-0.35399172 -0.7457998 0.36693388 0.13844639 0.26508653 -0.1353612 -0.057276607 -0.17091891
0.20831448 -0.38743633 -0.4088353 0.36981928 -0.37592 0.06384449 -0.5503491 -0.085131146
-0.05818414 0.7165553 -0.16858716 -0.15890263 -0.021389447 0.29479873 0.116166234 0.14492267
0.3276297 -0.3436356 0.69241995 0.013594263 -0.22385387 0.3931712 -0.05634385 0.051556353
0.6902829 0.36075342 -0.14719576 -0.16954598 0.56276995 -0.18062322 0.26596856 -0.1803876
-0.013764014 -0.51735413 -0.21206045 -0.079501666 -0.156761 -0.050286718 -0.22808447 -0.38772726
-0.20241491 -0.67617726 0.018677762 0.7298716 0.16629885 0.40797418 0.25266948 -0.14599256
-0.26430488 0.6960778 0.12697592 0.19202285 -0.16079158 0.64646786 0.44663462 -0.4665143
-0.20415395 0.032695387 -0.006905946 0.65259844 0.33043563 -0.12338451 -0.14390573 -0.6716886
0.19957933 -0.08620732 0.3571669 0.015035705 0.4207072 -0.34373215 0.21651758 -0.48757443
0.032059867 -0.08041847 -0.26867262 -0.15019076 0.30154192 -0.1597306 0.006768394 -0.53856516
0.37596887 0.5097268 -0.031063994 -0.5684719 0.055415362 0.04599429 0.2933322 0.010896123
-0.65368617 0.037877955 -0.073612876 -0.04340969 0.056305047 0.11926663 0.14856023 -0.18319827
0.4399144 -0.42141595 -0.08845682 0.45797387 0.21842198 -0.21840192 0.070714675 -0.19538343
-0.021853566 -0.3783769 -0.087988764 -0.31820863 -0.58514655 -0.171714 0.0073192404 -0.22089452
-0.040806152 0.7558437 0.15838952 0.18345843 0.13823381 -0.12511945 0.37189007 -0.1212531
-0.2195981 0.3599168 -0.44164616 0.6838814 0.068514146 -0.02060578 0.19321808 -0.087295346
-0.87729347 -0.07289374 -0.11046948 -0.08163292 -0.13108812 0.41118878 0.664889 0.12792476
-0.015636183 0.020659005 -0.6275236 0.09427281 0.11173856 -0.27882627 0.004556417 -0.56193024
-0.07164486 0.24908224 0.49197966 -0.014714471 0.4661824 0.115915775 0.03725596 0.15206945
0.0127117345 -0.5605778 -0.3162312 0.13219348 0.29858935 0.06204569 0.41773358 -0.06253101
0.14473508 0.76887673 -0.011124316 -0.5487575 -0.091853335 -0.011555939 -0.13172075 -0.082040615
-0.52847934 -0.059198406 0.02849417 -0.06537287 -0.043714024 0.07781041 0.2113812 0.20029807
0.15805078 -0.3019024 0.82748693 0.05785831 0.1441897 0.19532253 -0.086715 0.38226882
0.6487212 -0.018573193 -0.023820624 0.024079928 -0.6409846 0.36862537 0.15103221 -0.14388625
0.01346099 0.6236996 0.3248712 0.23440745 -0.06736618 0.00017264823 0.5535873 0.12629737
0.113282084 0.048213396 -0.096642405 0.4241116 0.14703023 -0.23490356 0.14697415 -0.38696226
-0.6212057 -0.11199823 0.095073424 -0.27603102 -0.069543414 -0.33333805 -0.62491196 0.15657948
0.3224739 -0.1633609 -0.6564617 0.23021689 0.2537525 0.32418564 0.06667362 -0.7477629
00000000: 6196 3abe cac2 23bf bcdd c33c 1ec4 d63d
00000010: 5c1b aebc 7f6f e9bd 4614 60bf d340 98be
00000020: de9e 563e d7dd 7ebe d83b 103d c0a1 743d
00000030: 80e8 7a3e e8d8 993d 6308 67be 60c3 39bf
00000040: db85 8d3e 3ae1 103e c62c 673e ebe4 efbd
00000050: 7a74 d63e da25 9f3e 3829 273e 8483 afbe
00000060: 673e b5be bcec 3ebf c2de bb3e e4c4 0d3e
00000070: 6cb9 873e 209c 0abe e09a 6abd 5e05 2fbe
00000080: 6450 553e 0e5e c6be dc52 d1be f458 bd3e
00000090: 9678 c0be e6c0 823d aee3 0cbf 3d59 aebd
000000a0: 7e52 6ebd 2b70 373f 1da2 2cbe 5fb7 22be
000000b0: ec38 afbc dcef 963e 90e8 ed3d 9c66 143e
000000c0: 14bf a73e 01f1 afbe 6f42 313f 79ba 5e3c
000000d0: f339 65be bc4d c93e cfc8 66bd c12c 533d
000000e0: 61b6 303f acb4 b83e 7cba 16be 769d 2dbe
000000f0: b111 103f 4bf5 38be 082d 883e 87b7 38be
00000100: 7582 61bc 5271 04bf 6026 59be c5d1 a2bd
00000110: f585 20be 72f9 4dbd fa8e 69be 3084 c6be
00000120: db45 4fbe f419 2dbf 1b02 993c ddd8 3a3f
00000130: 3f4a 2a3e fee1 d03e e55d 813e 137f 15be
00000140: f852 87be 2832 323f fa05 023e a3a1 443e
00000150: 8ca6 24be eb7e 253f 4bad e43e f6da eebe
00000160: bc0d 51be 99eb 053d 464b e2bb b110 273f
00000170: dc2e a93e 05b1 fcbd 065c 13be c9f3 2bbf
00000180: 865e 4c3e 778d b0bd 94de b63e 5158 763c
00000190: ef66 d73e a9fd afbe c9b6 5d3e 5ba3 f9be
000001a0: 3551 033d 70b2 a4bd 758f 89be 9bcb 19be
000001b0: b463 9a3e 6b90 23be 67c9 dd3b 68df 09bf
000001c0: fe7e c03e 757d 023f eb79 febc 6087 11bf
000001d0: 38fb 623d 8264 3c3d a32f 963e a785 323c
000001e0: fa57 27bf ea25 1b3d 59c2 96bd 5cce 31bd
000001f0: 1fa0 663d 1042 f43d 2c20 183e 5498 3bbe
00000200: 763c e13e d5c3 d7be d928 b5bd 8d7b ea3e
00000210: 03aa 5f3e c1a4 5fbe dbd2 903d 9812 48be
00000220: 4006 b3bc 9eba c1be 7433 b4bd 3eec a2be
00000230: 2acc 15bf cbd5 2fbe 3dd6 ef3b 2c32 62be
00000240: 5a24 27bd f97e 413f dd30 223e 87dc 3b3e
00000250: 2a8d 0d3e 501f 00be 6068 be3e 8c53 f8bd
00000260: 53de 60be 0447 b83e 721f e2be da12 2f3f
00000270: 2551 8c3d 74cd a8bc f6da 453e e7c7 b2bd
00000280: 4e96 60bf 5049 95bd d33d e2bd 292f a7bd
00000290: f73b 06be 5687 d23e 2a36 2a3f b5fe 023e
000002a0: 7417 80bc 133d a93c 63a5 20bf 1a12 c13d
000002b0: 30d7 e43d 51c2 8ebe ff4d 953b a9da 0fbf
000002c0: 8aba 92bd 6a0f 7f3e c2e4 fb3e f714 71bc
000002d0: 76af ee3e 4065 ed3d b599 183d 18b8 1b3e
000002e0: e144 503c 0782 0fbf 0ee9 a1be ba5d 073e
000002f0: b4e0 983e 9f23 7e3d 2de1 d53e 4210 80bd
00000300: 6f35 143e 1bd5 443f c342 36bc 5f7b 0cbf
00000310: 9a1d bcbd 1f55 3dbc cee1 06be e904 a8bd
00000320: 6c4a 07bf 077a 72bd 9b6c e93c 36e2 85bd
00000330: 7a0d 33bd 105b 9f3d 5074 583e f01a 4d3e
00000340: 10d8 213e f492 9abe 2fd6 533f d6fc 6c3d
00000350: 77a6 133e a102 483e a297 b1bd bdb8 c33e
00000360: 9812 263f cf26 98bc 7823 c3bc 4543 c53c
00000370: 9117 24bf 77bc bc3e 30a8 1a3e eb56 13be
00000380: 7c8b 5c3c c7aa 1f3f 8555 a63e 8208 703e
00000390: 48f7 89bd e808 3539 e6b7 0d3f 1954 013e
000003a0: 7000 e83d 697b 453d 74ec c5bd 2825 d93e
000003b0: 188f 163e 8f8a 70be 6480 163e eb1f c6be
000003c0: 5607 1fbf 545f e5bd dbb5 c23d f053 8dbe
000003d0: c76c 8ebd 49ab aabe 3bfa 1fbf 5f56 203e
000003e0: 4d1b a53e 1448 27be e00d 28bf fabd 6b3e
000003f0: d9eb 813e a9fb a53e 2e8c 883d 646d 3fbf

fc1.bias f4 [128]
0.14369953 0.3975083 0.3531847 -0.3944124 0.03181106 -0.3673906 -0.10849249 0.2547702
-0.19020313 -0.04395944 -0.05228821 0.008786642 0.19661626 0.18896343 -0.033852097 -0.20319025
-0.049698234 -0.16003402 -0.17019624 -0.14067744 -0.56117535 -0.3233784 -0.25893056 0.123662196
-0.42172375 -0.21501823 -0.42870572 0.040739655 0.11426355 0.18163425 0.3162818 -0.13345434
-0.26859558 -0.03711292 0.09966009 -0.16026679 -0.2845237 -0.49492598 0.107395366 0.3066083
0.06690596 -0.014185309 -0.1368382 -0.03285969 0.14910519 0.031563956 0.4011846 0.04829055
0.28660616 0.10627528 -0.23730533 0.03129373 -0.1547786 -0.37496674 0.15378809 -0.08574876
-0.2706534 0.2558721 -0.17814593 -0.3522184 -0.15146515 0.20716733 0.17691042 -0.017328134
-0.11066501 -0.45681483 0.007642816 0.0125508895 0.25645882 0.28203824 -0.056319457 -0.37633663
0.28067595 0.07449985 -0.15953204 -0.2207859 -0.09157378 -0.038409952 0.26130962 0.104467414
-0.12905912 -0.25040755 0.11054784 -0.3261652 -0.480231 0.41246343 0.35642678 0.3911311
-0.4349023 -0.22754766 0.4464259 -0.15301804 0.06830931 0.36224544 -0.52517647 0.38586816
-0.28386813 -0.39598137 -0.2869829 0.059017014 -0.122919336 0.0016421021 -0.5012517 0.26685318
0.41607484 -0.42409515 -0.2905838 -0.44563496 0.09948266 -0.2511524 -0.3501417 0.43248925
-0.04904222 0.29909286 0.35613006 -0.3708446 -0.31120634 0.22611558 0.2905839 0.40029627
0.22934505 -0.04061722 -0.3059315 0.15153709 0.16030143 -0.10189955 0.0054530576 0.5003755
00000000: f825 133e 3586 cb3e a0d4 b43e 6cf0 c9be
00000010: 504c 023d 9f1a bcbe 5031 debd 3d71 823e
00000020: 9cc4 42be d00e 34bd 292c 56bd d9f5 0f3c
00000030: c655 493e a17f 413e 7fa8 0abd 1b11 50be
00000040: 6090 4bbd f5df 23be ec47 2ebe bf0d 10be
00000050: 30a9 0fbf db91 a5be 8c92 84be 9b42 fd3d
00000060: 2dec d7be bd2d 5cbe 517f dbbe a0de 263d
00000070: 0203 ea3d 54fe 393e b0ef a13e 41a8 08be
00000080: 5c85 89be b803 18bd 971a cc3d fa1c 24be
00000090: 17ad 91be f066 fdbe 1af2 db3d c3fb 9c3e
000000a0: fe05 893d 8069 68bc 501f 0cbe e297 06bd
000000b0: 08af 183e 3549 013d 1168 cd3e 50cc 453d
000000c0: 0bbe 923e dba6 d93d 2b00 73be db2d 003d
000000d0: 487e 1ebe a4fb bfbe a07a 1d3e 0c9d afbd
000000e0: 1593 8abe ab01 833e e36b 36be f855 b4be
000000f0: ae19 1bbe ac23 543e 0128 353e bbf3 8dbc
00000100: 56a4 e2bd a2e3 e9be 9670 fa3b 3fa2 4d3c
00000110: 924e 833e 5167 903e 3baf 66bd 32af c0be
00000120: c2b4 8f3e 6193 983d 5e5c 23be b315 62be
00000130: 098b bbbd c153 1dbd 60ca 853e 03f3 d53d
00000140: 1328 04be 6b35 80be e866 e23d 20ff a6be
00000150: d6e0 f5be 682e d33e 927d b63e 5642 c83e
00000160: 84ab debe 4102 69be f091 e43e c3b0 1cbe
00000170: c0e5 8b3d 3c78 b93e f771 06bf 8390 c53e
00000180: 2a57 91be 12be cabe 6cef 92be d3bb 713d
00000190: 22bd fbbd ce3b d73a 0852 00bf fba0 883e
000001a0: c307 d53e 0023 d9be 66c7 94be 442a e4be
000001b0: 91bd cb3d 0c97 80be c645 b3be 3b6f dd3e
000001c0: 7fe0 48bd b322 993e ae56 b63e 58df bdbe
000001d0: 7056 9fbe d88a 673e 6ac7 943e a2f3 cc3e
000001e0: 6ed9 6a3e 3e5e 26bd 0ea3 9cbe 8a2c 1b3e
000001f0: 0f26 243e b6b0 d0bd 90af b23b 9c18 003f

fc2.weight f4 [64, 128]
0.054176558 -0.21954957 0.0608133 -0.15141092 0.07142726 -0.061300073 0.017136268 -0.17506157
0.13986869 0.07769797 -0.20632018 -0.27736026 0.09065452 0.016640406 0.03988256 -0.027874572
-0.19312711 0.03297018 -0.38277122 -0.104265966 -0.05720679 -0.001675101 -0.058112554 -0.17320864
-0.007139981 -0.014441974 -0.019609515 0.052227013 -0.07109916 -0.20037517 -0.08825587 -0.1679335
-0.090873756 -0.029265381 -0.019675083 -0.07754231 -0.101547614 -0.066001646 -0.054193046 0.014235626
-0.13734949 -0.018613584 -0.27032492 0.050634596 -0.045763142 -0.01968811 -0.19866368 0.04954002
-0.0065783015 -0.056842532 -0.19891787 -0.07839025 0.031442463 -0.030310154 -0.30070522 0.0602934
-0.08011371 -0.13534075 -0.19248514 0.07347267 0.041607507 0.08898092 0.00952137 0.011447645
-0.14987141 0.08934525 -0.252762 -0.22298434 -0.2922073 0.027116101 0.013932064 0.15769452
-0.031268768 0.011815047 -0.010757385 0.005981132 -0.14641798 -0.07352669 -0.12735768 0.10028297
-0.16496176 -0.27918562 0.043188266 0.038641594 -0.11655483 -0.12438458 -0.11329341 -0.02122658
-0.12252249 0.095651135 -0.069199376 0.015325894 0.021054275 -0.21499798 0.010900112 -0.068478525
-0.094734974 0.03018926 0.072163135 0.030997992 0.057620756 -0.02160841 -0.01039322 -0.11088068
-0.15027678 -0.016881375 0.081585474 -0.012404997 0.0011096977 -0.11798739 0.006391719 0.025058389
-0.06818951 0.056673635 -0.080750875 -0.065098576 -0.0031820312 0.0859229 0.031167977 -0.08155964
0.082676105 -0.047652964 -0.026764132 -0.05426643 -0.026794631 0.068561986 -0.18137223 -0.08556643
0.017556122 -0.4452634 -0.010131709 -0.1874257 0.0597898 -0.020235827 0.051036544 0.03222138
-0.11046016 -0.023464002 -0.07146934 0.034425896 0.055052776 0.061666243 0.021577436 -0.05514049
-0.016495313 0.077829726 -0.07191646 -0.18599601 0.023700735 0.0027780458 0.008988197 -0.13650037
-0.15358065 -0.029880892 -0.055386357 0.013629861 0.050566923 -0.14672194 -0.07487578 -0.15271918
-0.43260926 -0.09623352 -0.039107054 -0.073103994 -0.031829204 0.025013383 0.04722834 0.127216
0.116171405 -0.01962196 -0.25818563 -0.088946775 -0.17190598 -0.00515859 -0.22341943 0.07821723
0.103840776 -0.15371063 -0.17812541 -0.17227921 0.014441505 0.07370629 -0.2963182 0.07416461
-0.44776988 -0.15481098 -0.0580722 0.010445238 -0.0013171182 0.03217055 0.047674656 0.05030654
-0.23035406 0.05839433 -0.25675774 -0.44358116 -0.19711514 -0.0637076 0.030326953 -0.2332401
0.07510822 -0.071755774 0.07863492 0.0070215478 -0.402619 -0.057762027 0.049811166 -0.024925662
-0.2013447 -0.2891281 -0.012716323 0.028519146 -0.0045704767 -0.3162262 -0.07372232 -0.027218271
-0.0008615482 0.025051406 0.07190058 -0.0021750138 -0.01898706 -0.21511537 -0.05822478 -0.038608346
-0.15258215 0.039348416 0.04382449 -0.04453565 0.018341346 -0.09758074 -0.0024712377 -0.04515767
-0.29971635 -0.085529044 -0.02450759 0.02776036 0.015589086 -0.012902732 0.087200426 0.052108414
0.035898916 0.019090623 -0.1979501 0.014532125 -0.0025844872 -0.21924856 0.082370974 -0.0068529174
0.014243621 -0.04365244 0.035347812 -0.0041460637 -0.12791654 -0.043566007 -0.15509465 -0.24110012
00000000: 3de8 5d3d 9ad1 60be 5e17 793d 770b 1bbe
00000010: 7548 923d c915 7bbd 5c61 8c3c 5743 33be
00000020: bd39 0f3e 1d20 9f3d 9945 53be 2a02 8ebe
00000030: 14a9 b93d 7651 883c e55b 233d 3759 e4bc
00000040: 1dc3 45be bd0b 073d 97fa c3be 6589 d5bd
00000050: ab51 6abd 108f dbba 6e07 6ebd 9b5d 31be
00000060: 80f6 e9bb 089e 6cbc 22a4 a0bc feeb 553d
00000070: 709c 91bd 262f 4dbe 7ebf b4bd c2f6 2bbe
00000080: 051c babd f4bd efbc a42d a1bc 81ce 9ebd
00000090: 32f8 cfbd df2b 87bd 87f9 5dbd 8b3c 693c
000000a0: 58a5 0cbe 847b 98bc 0768 8abe 3966 4f3d
000000b0: 2272 3bbd f648 a1bc 7e6e 4bbe 7aea 4a3d
000000c0: cb8e d7bb b7d3 68bd 20b1 4bbe 118b a0bd
000000d0: d0c9 003d 004d f8bc 09f6 99be 36f6 763d
000000e0: a812 a4bd c496 0abe d31a 45be d778 963d
000000f0: a26c 2a3d a13b b63d 85ff 1b3c e78e 3b3c
00000100: e477 19be a4fa b63d 056a 81be 0256 64be
00000110: 329c 95be 9622 de3c 5043 643c ac7a 213e
00000120: ae13 00bd e693 413c be3f 30bc 5ffd c33b
00000130: 98ee 15be 2995 96bd 0d6a 02be 2861 cd3d
00000140: bceb 28be 6bf1 8ebe 2ee6 303d a646 1e3d
00000150: 4cb4 eebd 58bd febd 6006 e8bd 5de3 adbc
00000160: 12ed fabd bee4 c33d 67b8 8dbd 7519 7b3c
00000170: 047a ac3c 6e28 5cbe 6296 323c 783e 8cbd
00000180: 6904 c2bd 784f f73c 44ca 933d 80ef fd3c
00000190: be03 6c3d 1f04 b1bc 5348 2abc 6915 e3bd
000001a0: 28e2 19be cf4a 8abc 4916 a73d 543e 4bbc
000001b0: 4773 913a 5fa3 f1bd a071 d13b 4047 cd3c
000001c0: f1a6 8bbd 9d22 683d b760 a5bd 6752 85bd
000001d0: a089 50bb 58f8 af3d fc53 ff3c be08 a7bd
000001e0: 1752 a93d c12f 43bd 7440 dbbc 7a46 5ebd
000001f0: 6a80 dbbc 3a6a 8c3d a4b9 39be 743d afbd
00000200: dbd1 8f3c 90f9 e3be 78ff 25bc 86ec 3fbe
00000210: 26e6 743d 9bc5 a5bc b20b 513d 91fa 033d
00000220: f038 e2bd 9437 c0bc 845e 92bd 2b02 0d3d
00000230: 057f 613d be95 7c3d 2ac3 b03c ffda 61bd
00000240: 2e21 87bc 3165 9f3d f048 93bd bd75 3ebe
00000250: 0b28 c23c e00f 363b 3b43 133c c1c6 0bbe
00000260: 3f44 1dbe c6c8 f4bc cedc 62bd c84f 5f3c
00000270: 431f 4f3d 473e 16be 7958 99bd 6b62 1cbe
00000280: f67e ddbe 1416 c5bd b82e 20bd 8cb7 95bd
00000290: 575f 02bd dee8 cc3c 8172 413d e944 023e
000002a0: 46eb ed3d 3cbe a0bc e830 84be ba29 b6bd
000002b0: 1f08 30be 6409 a9bb 10c8 64be 5b30 a03d
000002c0: 79aa d43d 5266 1dbe 8266 36be f669 30be
000002d0: 109c 6c3c 53f3 963d 05b7 97be 9de3 973d
000002e0: 1842 e5be c586 1ebe 1ddd 6dbd 8122 2b3c
000002f0: 27a3 acba 44c5 033d 8046 433d 3b0e 4e3d
00000300: efe1 6bbe e52e 6f3d c075 83be 121d e3be
00000310: 8dd8 49be 2179 82bd 3b70 f83c 7ed6 6ebe
00000320: 57d2 993d b1f4 92bd 580b a13d 0315 e63b
00000330: 1424 cebe e097 6cbd cb06 4c3d e730 ccbc
00000340: 4e2d 4ebe 9908 94be 2058 50bc fca0 e93c
00000350: f0c3 95bb 67e8 a1be bafb 96bd daf8 debc
00000360: 85d9 61ba 9b38 cd3c 9c40 933d ad8a 0ebb
00000370: c08a 9bbc 3447 5cbe 1b7d 6ebd c923 1ebd
00000380: 7f3e 1cbe ce2b 213d 4f81 333d 046b 36bd
00000390: 9740 963c 69d8 c7bd 7df4 21bb 40f7 38bd
000003a0: 6c74 99be da29 afbd 24c4 c8bc b269 e33c
000003b0: 5e69 7f3c fb65 53bc 2396 b23d a26f 553d
000003c0: be0a 133d f063 9c3c 6eb3 4abe 2618 6e3c
000003d0: 8060 29bb b282 60be 1db2 a83d 708e e0bb
000003e0: 145e 693c e7cc 32bd dec8 103d b4db 87bb
000003f0: 8efc 02be 4572 32bd 22d1 1ebe f3e2 76be

fc2.bias f4 [64]
0.027034638 0.098432824 0.0050100363 0.06422379 0.037567027 0.04783472 0.09260433 0.07684956
0.12103319 0.036155164 0.10162393 0.08554821 0.048612736 0.032981675 -0.04025017 0.10717477
0.11474782 0.096140385 0.15546313 0.05305598 0.06214898 0.12018696 0.086738005 0.12139893
0.049355723 0.059473373 0.022584116 0.08787704 0.14920375 0.040458538 0.08286087 -0.008486365
0.12073015 0.13436276 0.08877034 0.11327387 0.13656706 0.00845016 0.012463474 0.0036169658
0.0491112 0.05264183 0.09868456 0.13215867 0.12060309 0.042736154 0.180846 -0.08158124
0.047751263 0.057324965 0.06757347 -0.0012899782 0.175023 0.04024447 0.16014487 0.017297367
0.12628172 -0.02168866 0.019058779 -0.0189764 -0.04010808 0.025796562 0.046947304 0.060553737
00000000: bf77 dd3c 2697 c93d 3b2b a43b c387 833d
00000010: e2df 193d 57ee 433d 57a7 bd3d 4d63 9d3d
00000020: 40e0 f73d 7017 143d 3520 d03d e633 af3d
00000030: 261e 473d cb17 073d 5ddd 24bd 727e db3d
00000040: e800 eb3d 40e5 c43d ba31 1f3e 3a51 593d
00000050: ee8f 7e3d 9524 f63d b2a3 b13d 01a0 f83d
00000060: 3a29 4a3d 5a9a 733d 5302 b93c e1f8 b33d
00000070: dec8 183e dab7 253d f6b2 a93d 650a 0bbc
00000080: 5e41 f73d 6496 093e 39cd b53d 21fc e73d
00000090: 3cd8 0b3e 8a72 0a3c 9933 4c3c 9e0a 6d3b
000000a0: d328 493d f69e 573d 211b ca3d 9a54 073e
000000b0: c1fe f63d 1b0c 2f3d b22f 393e 1114 a7bd
000000c0: d496 433d 95cd 6a3d f663 8a3d 7c14 a9ba
000000d0: 3b39 333e 63d7 243d 04fd 233e 35b3 8d3c
000000e0: ff4f 013e 6bac b1bc 2821 9c3c 6574 9bbc
000000f0: 5f48 24bd 5053 d33c d14b 403d 3207 783d

fc3.weight f4 [1, 64]
0.13441208 0.16872594 -0.078673884 -0.13436615 -0.084127374 -0.10062581 -0.08807562 0.101051584
0.070397265 0.11517725 -0.12022426 0.07454713 -0.07420168 -0.13986896 0.09661509 -0.121866494
0.07029784 0.09552301 0.08735442 0.12528177 -0.08347629 0.09076667 0.08423504 -0.080428585
0.067366645 0.13389039 0.113651246 0.13655177 0.08678335 -0.18861319 0.070853494 -0.07744614
-0.08465318 0.094163105 -0.09720015 -0.17244935 0.07408929 0.1249172 -0.11161983 -0.07181631
0.11469822 -0.12152514 0.09187181 -0.11801899 -0.081383325 -0.07037499 0.07763091 -0.10593951
-0.062951334 0.07326844 -0.07235569 -0.073788084 0.068669684 -0.08557689 0.074560866 -0.14971642
0.07251363 0.105243094 0.09863427 -0.061691727 -0.12165937 -0.10707948 -0.061011493 0.10293527
00000000: 52a3 093e 7ec6 2c3e c61f a1bd 4897 09be
00000010: f94a acbd e814 cebd fe60 b4bd 22f4 ce3d
00000020: 712c 903d 0de2 eb3d 2338 f6bd 2aac 983d
00000030: 0df7 97bd cf39 0fbe 22de c53d 2495 f9bd
00000040: 50f8 8f3d 91a1 c33d e0e6 b23d dd49 003e
00000050: 9ef5 aabd e0e3 b93d 6c83 ac3d beb7 a4bd
00000060: 86f7 893d 901a 093e fcc1 e83d 3ad4 0b3e
00000070: 78bb b13d d123 41be a31b 913d 159c 9ebd
00000080: a55e adbd 96d8 c03d df10 c7bd 9096 30be
00000090: 20bc 973d 97d4 ff3d f098 e4bd 6e14 93bd
000000a0: e6e6 ea3d 2ce2 f8bd 4a27 bc3d f1b3 f1bd
000000b0: 4dac a6bd c320 90bd f4fc 9e3d d0f6 d8bd
000000c0: a1ec 80bd c40d 963d 382f 94bd 351e 97bd
000000d0: b1a2 8c3d f042 afbd 5eb3 983d 434f 19be
000000e0: 0782 943d b189 d73d c400 ca3d 77b0 7cbd
000000f0: 8c28 f9bd 7d4c dbbd 30e7 79bd bacf d23d
